model_asli_bukan.tflite (tflite, 12196 bytes, 6 tensors)

arith.constant f4 [2, 64]
0	0x3e7652a6	0.24054965
1	0x3ece22e4	0.40260994
2	0x3c70a521	0.014687807
3	0xbeb78f63	-0.35851583
4	0x3e5cfa41	0.2157984
5	0x3d6ec72d	0.058295418
6	0x3eefe3b0	0.468534
7	0xbd6be244	-0.05758883
8	0xbe53359c	-0.20625919
9	0x3e1e5a15	0.15464051
10	0xbe7085f6	-0.23488602
11	0xbe9937e8	-0.29925466
12	0x3e67e75d	0.22646852
13	0xbe53cef3	-0.20684414
14	0x3f0611bd	0.52370816
15	0x3e0ad8da	0.13559285
16	0x3cd6b366	0.02620859
17	0xbee1280b	-0.43975863
18	0xbf193c47	-0.598576
19	0x3f00da10	0.50332737
20	0x3da8f96e	0.082507
21	0xbe72ddd8	-0.23717439
22	0xbdbf30e3	-0.09335496
23	0xbf27d575	-0.65560085
24	0xbe9be049	-0.30444553
25	0x3e3315ce	0.17488787
26	0xbe89340b	-0.26797518
27	0xbe7a7fdc	-0.24462837
28	0x3ebdcfa2	0.37072474
29	0x3e69f4d9	0.22847308
30	0xbe4469ed	-0.19181032
31	0xbe96ac8b	-0.29428515
32	0xbebcce85	-0.36876312
33	0x3e87fac1	0.26558498
34	0xbe81fd5d	-0.25388613
35	0xbe8229ca	-0.25422508
36	0x3d098c2d	0.033580948
37	0xbe21bdef	-0.1579511
38	0x3ead5ed2	0.33861405
39	0x3de4f13e	0.11178826
40	0xbd5efb8e	-0.05443912
41	0x3d88012b	0.06640848
42	0xbe9e0a4f	-0.3086724
43	0x3e887b4b	0.26656565
44	0x3ebcec6c	0.36899126
45	0x3e0eea6b	0.13956611
46	0xbe4bdc99	-0.1990837
47	0x3e2d2ff1	0.1691282
48	0xbe7050b9	-0.23468293
49	0x3ea52c86	0.3226053
50	0x3dd00b42	0.10158397
51	0x3e5a16c1	0.21297742
52	0xbe81bcf0	-0.2533946
53	0xbec74046	-0.38916224
54	0x3e88ae77	0.26695606
55	0xbf313721	-0.69224745
56	0x3eff8805	0.49908462
57	0xbe7a5502	-0.2444649
58	0x3f0c60d8	0.5483527
59	0xbf45cdad	-0.7726696
60	0x3f041714	0.51597714
61	0xbdf08631	-0.11744345
62	0x3e316d7f	0.17326926
63	0xbe8562f2	-0.26052052
64	0xbe8b6d0a	-0.27231628
65	0xbe111826	-0.14169368
66	0xbe65cbe0	-0.22441053
67	0x3b562719	0.0032677113
68	0xbe97964e	-0.2960686
69	0xbdad1ae1	-0.08452392
70	0xbdcbcce6	-0.09951191
71	0x3dbeb8ce	0.093125924
72	0x3ef4ffd7	0.4785144
73	0x3e1a7dfa	0.15087119
74	0xbe6ac141	-0.22925283
75	0x3e548db4	0.2075718
76	0x3eac809d	0.33691874
77	0xbd001f4b	-0.031279843
78	0xbe187c5a	-0.14891186
79	0xbd463a6d	-0.048395563
80	0xbdfddbd8	-0.123954475
81	0x3eef75ea	0.4676965
82	0x3f42b257	0.76053375
83	0xbed7f628	-0.4217999
84	0xbe9980ad	-0.29980984
85	0x3ce8b748	0.028407708
86	0xbdb2fae0	-0.08739257
87	0x3f1945d6	0.59872186
88	0x3e104eee	0.1409261
89	0xbe5e877d	-0.21731372
90	0x3e1519b6	0.14560589
91	0x3ea59b9a	0.32345277
92	0xbe4c177b	-0.19930832
93	0xbeb72a8c	-0.35774648
94	0xbe32a9ae	-0.1744754
95	0x3ebe9ade	0.3722753
96	0x3e43aa2b	0.19107883
97	0x3c1237c2	0.0089244265
98	0xbe81be06	-0.2534029
99	0x3e820c8f	0.25400206
100	0x3e466b9e	0.1937699
101	0xbe19909b	-0.14996569
102	0xbdc4f721	-0.096174486
103	0xbb6d2989	-0.0036188087
104	0x3e9f6757	0.3113353
105	0x3e99ffbd	0.30077925
106	0x3e9aa125	0.3020107
107	0x3e14b415	0.14521821
108	0xbef9dfb0	-0.48803473
109	0xbede2b65	-0.43392482
110	0x3d9fd31e	0.07803939
111	0xbd670680	-0.056402683
112	0x3ec77971	0.3895984
113	0xbe65fcdb	-0.22459738
114	0x3e206f31	0.15667416
115	0xbe3c5399	-0.18391265
116	0x3e594bdb	0.21220343
117	0x3ce08351	0.027406367
118	0xbe3b1edf	-0.18273495
119	0x3f0b4481	0.54401404
120	0xbf023153	-0.5085651
121	0x3dd89e19	0.1057703
122	0xbc003360	-0.007824749
123	0x3e916a29	0.28401306
124	0xbd0cafb0	-0.034347236
125	0x3ea63908	0.32465386
126	0xbee369fc	-0.44416797
127	0x3edf5a81	0.43623737

arith.constant1 f4 [64, 32]
0	0x3b9a7156	0.0047132177
1	0x3e323dcb	0.17406385
2	0x3e9f4643	0.31108293
3	0xbe14bba5	-0.14524706
4	0x3e1459f0	0.14487433
5	0x3e62b342	0.22138694
6	0xbc84a73b	-0.016193023
7	0x3d646e2f	0.05576914
8	0xbe509ad9	-0.2037157
9	0xbdf94bb2	-0.12172641
10	0x3e81cde6	0.253524
11	0x3da5961f	0.08085274
12	0xbe6e4de7	-0.23271905
13	0xbea6efd5	-0.32604852
14	0xbe347a62	-0.1762481
15	0xbe20e407	-0.15711986
16	0x3d5b5bef	0.05355447
17	0x3e1895b4	0.14900857
18	0xbd1b9144	-0.037980333
19	0x3e73b3fa	0.23799124
20	0xbda89f4e	-0.0823351
21	0xbd826f3e	-0.06368874
22	0x3bee89a2	0.0072795907
23	0x3dd4e8e6	0.10395984
24	0xbf27a948	-0.6549268
25	0x3d9649ea	0.07338317
26	0x3c97c6cf	0.018527417
27	0x3e166a0d	0.14688893
28	0xbde8b56e	-0.1136273
29	0x3db40dad	0.08791671
30	0xbe2c1c11	-0.16807581
31	0x3e5ca94a	0.21548954
32	0x3e8cfda9	0.27537277
33	0x3e91bde5	0.2846519
34	0x3e842d29	0.25815704
35	0xbeb4706b	-0.35242018
36	0xbd6693c1	-0.056293253
37	0xbdfcafd4	-0.12338224
38	0x3d286bae	0.041118316
39	0x3e44b492	0.19209507
40	0xbe94fa8e	-0.29097408
41	0xbda2428b	-0.07922848
42	0x3e0b243d	0.13588043
43	0xbdfdd16f	-0.12393462
44	0x3da2f013	0.07955947
45	0x3e997eda	0.29979593
46	0xbe7484b2	-0.23878744
47	0x3ec59668	0.38591313
48	0xbdd95fba	-0.106139615
49	0x3ed2a036	0.41137856
50	0x3ca0cf33	0.01963005
51	0xbe5dce39	-0.21660699
52	0xbd1af3d4	-0.03783019
53	0x3e222790	0.15835404
54	0x3ebda62f	0.3704085
55	0xbea54eae	-0.3228659
56	0xbf538327	-0.82622
57	0x3ea33da4	0.31882966
58	0xbec11150	-0.3770852
59	0x3e58ec70	0.21183944
60	0xbef89a59	-0.48555258
61	0xbe9e9109	-0.30970028
62	0x3e790b22	0.24320653
63	0x3cee4c35	0.029089073
64	0xbe626290	-0.22107911
65	0xbda2bcae	-0.07946144
66	0x3e4c2341	0.19935323
67	0xbddd2298	-0.10797614
68	0xbe3d8cef	-0.18510793
69	0xbe11bddc	-0.14232582
70	0x3de2124a	0.110386446
71	0x3e1afc19	0.1513523
72	0xbe853e0c	-0.260239
73	0xbeba23b0	-0.36355352
74	0x3e80bb33	0.25142822
75	0x3e29cb4b	0.16581456
76	0x3e8383be	0.2568645
77	0x3db4da58	0.08830708
78	0xbec98b2a	-0.39363986
79	0x3dab7967	0.08372765
80	0xbcd8c945	-0.02646316
81	0x3ddf6fd7	0.10910004
82	0xbe1b6ada	-0.1517748
83	0x3e746558	0.23866785
84	0x3e2314b2	0.15925863
85	0xbd3c57c3	-0.045982134
86	0x3dc5510c	0.09634599
87	0x3e2cddcb	0.16881482
88	0xbe4369bd	-0.19083305
89	0x3b528571	0.0032122994
90	0xbe316507	-0.17323695
91	0x3dce2b3c	0.1006684
92	0xbe83192e	-0.25605148
93	0xbded8a5e	-0.11598657
94	0x3e454ee8	0.19268382
95	0xbe327102	-0.17425922
96	0x3df2e18c	0.11859426
97	0xbe5893b8	-0.211501
98	0xbec9f4ef	-0.39444682
99	0xbcae14f2	-0.021250222
100	0x3d8cad60	0.06869006
101	0x3e040838	0.1289376
102	0x3e5c7b04	0.21531302
103	0xbeb0b338	-0.34511733
104	0x3d92d688	0.07169825
105	0xbe2f3cac	-0.17112988
106	0x3e2cdf17	0.16881977
107	0x3e0df953	0.13864641
108	0xbe534014	-0.20629913
109	0x3e818f41	0.25304607
110	0xbe45e7df	-0.19326733
111	0xbe497f8c	-0.19677562
112	0x3ec5faa3	0.38667783
113	0x3c0637b1	0.008191989
114	0xbd0f0d0d	-0.034924556
115	0xbe198425	-0.14991815
116	0xbe8e4eec	-0.27794588
117	0x3ead8c23	0.33895978
118	0x3d6a6599	0.057225797
119	0x3e166fc7	0.14691077
120	0x3f0463b5	0.5171464
121	0xbdf20951	-0.11818183
122	0x3d3ba0bc	0.045807585
123	0xbe3ae5fa	-0.18251792
124	0x3dde89c2	0.10866119
125	0xbe0c463d	-0.13698669
126	0x3e6ec8e8	0.23318827
127	0xbea0ab64	-0.3138076
128	0xbe46e52b	-0.19423358
129	0x3e5b5e62	0.21422723
130	0x3f27c101	0.65528876
131	0xbe8b4438	-0.27200484
132	0x3e8b86e1	0.27251342
133	0x3cfce2c4	0.030869849
134	0xbe4d654d	-0.20058174
135	0x3e216f1d	0.15765043
136	0xbda13c8f	-0.07872879
137	0xbc9b0b64	-0.01892633
138	0x3e6d7d03	0.2319222
139	0xbe61a6ff	-0.2203636
140	0xbdcf1f34	-0.101133734
141	0xbd324dfd	-0.043531407
142	0xbe8822b1	-0.26588967
143	0x3d53088c	0.051521823
144	0xbe837cdd	-0.256812
145	0xbbec6f09	-0.007215385
146	0x3da2a7d4	0.07942167
147	0x3d92d477	0.07169431
148	0x3da7d063	0.081940435
149	0xbea20e26	-0.3165142
150	0x3d6c1731	0.057639305
151	0x3e741e3b	0.23839657
152	0xbef6d85a	-0.48211938
153	0x3ddedeec	0.10882363
154	0xbe3ba8df	-0.18326138
155	0xbd3404f8	-0.04395005
156	0x3da51f4a	0.080626085
157	0xbebc03ae	-0.36721557
158	0xbe4db3b5	-0.20088084
159	0x3ea7ab56	0.32747906
160	0xbea4d450	-0.32193232
161	0xbd014ea3	-0.031569134
162	0xbec83ccf	-0.39108893
163	0xbd189b3e	-0.037257425
164	0x3e5e61e2	0.21717027
165	0x3d6f58d0	0.058434308
166	0x3e867081	0.2625771
167	0xbe56461f	-0.20925187
168	0xbdd88b3b	-0.10573431
169	0xbd02f183	-0.031968605
170	0x3dc61c89	0.096734114
171	0x3e1ab3f1	0.15107705
172	0x3c8b4e0e	0.017004993
173	0x3c94b2db	0.018151691
174	0xbe4f4333	-0.20240478
175	0x3e0f4bf3	0.13993816
176	0xbe4a7a81	-0.19773294
177	0x3e1405e7	0.14455377
178	0xbda93529	-0.082620926
179	0xbdfdf168	-0.1239956
180	0x3e3e9548	0.18611634
181	0xbea8d010	-0.3297124
182	0x3dc91b38	0.09819645
183	0x3e946aba	0.28987676
184	0xbcd6bd7c	-0.0262134
185	0xbbebf5ef	-0.0072009484
186	0xbe068674	-0.13137227
187	0x3dcb757a	0.09934516
188	0x3e83c0bf	0.2573299
189	0x3dbae8c5	0.091264285
190	0xbe6f8b59	-0.23393
191	0xbd01cd2c	-0.031689808
192	0x3e855e32	0.26048428
193	0x3e961b05	0.2931749
194	0x3f04b2e4	0.51835465
195	0xbe49a87b	-0.19693176
196	0xbe311b70	-0.17295623
197	0x3d90f660	0.07078242
198	0x3da528d4	0.08064428
199	0x3c01c344	0.00792009
200	0xbe36d292	-0.17853764
201	0xbecd45a1	-0.40092185
202	0x3d9382e7	0.07202702
203	0xbf2cc1c0	-0.6748314
204	0x3e05110d	0.12994786
205	0x3e6418c8	0.22275078
206	0xbefc3beb	-0.49264464
207	0x3e732ff5	0.23748763
208	0x3eb9e4a7	0.3630726
209	0x3e86270c	0.26201665
210	0x3ddc3857	0.107529335
211	0x3d8a1ecd	0.06744156
212	0x3dd66354	0.10468164
213	0x3e903cf2	0.28171498
214	0x3ec1ac9d	0.37827006
215	0xbe051e37	-0.12999807
216	0xbf39df8a	-0.7260672
217	0x3e9f9676	0.3116948
218	0xbe4f1804	-0.20224005
219	0x3f115b58	0.56780005
220	0xbf080dd7	-0.5314612
221	0xbedb0938	-0.4278047
222	0x3e898e21	0.26866248
223	0xbe72221d	-0.23645826
224	0xbdd6a3f6	-0.10480492
225	0xbdd1cbbe	-0.10243939
226	0xbebea3d1	-0.37234357
227	0xbd7005c3	-0.058599245
228	0xbdd2014e	-0.10254155
229	0x3d69eb42	0.057109125
230	0xbd03c6e6	-0.032172106
231	0x3d9c2634	0.07624474
232	0x3d09628f	0.03354126
233	0x3e0f19ba	0.13974658
234	0xbde55a42	-0.11198856
235	0x3dd2d254	0.10294023
236	0xbde99abb	-0.114064656
237	0xbd66a8b0	-0.056313217
238	0x3e2be6ec	0.16787308
239	0xbe360557	-0.17775474
240	0x3d1b957e	0.037984364
241	0xbea1e30d	-0.31618538
242	0xbd8b812c	-0.06811747
243	0x3e350d39	0.17680825
244	0xbd280fab	-0.041030567
245	0x3c9eaaf1	0.01936862
246	0x3c76525a	0.015034283
247	0x3e759fc8	0.23986733
248	0x3f1710b7	0.5900988
249	0xbe02916a	-0.12750784
250	0x3d320cb0	0.04346913
251	0xbe7799be	-0.24179742
252	0xbe364074	-0.17798024
253	0xbdb72776	-0.089430735
254	0xbe74ffd9	-0.23925723
255	0xbde8b7b3	-0.11363163

arith.constant2 f4 [2]
0	0xbc3430c1	-0.010997952
1	0x3c34309d	0.010997918

arith.constant3 f4 [64]
0	0xbc445d77	-0.011985174
1	0xbd5b3569	-0.053517733
2	0xbd0daf3a	-0.034590937
3	0xbc1ac551	-0.009446458
4	0xbc93dab6	-0.018048625
5	0xbc8dfbae	-0.017331924
6	0xbd2afd9d	-0.04174577
7	0x3c8934c9	0.016748803
8	0xbcdc968c	-0.026927255
9	0xbbc03711	-0.0058659394
10	0xbb9f6fb8	-0.004865613
11	0x3c4b674c	0.012414765
12	0x3a878ce9	0.0010341677
13	0x3ce7baba	0.02828728
14	0x3c222d22	0.009898456
15	0xbd156d70	-0.03648132
16	0x3c213b07	0.009840733
17	0xbc4423eb	-0.011971454
18	0x3ca1b37b	0.019738903
19	0x3d790fcb	0.060806077
20	0xbd33f26e	-0.04393237
21	0x3c7eac2d	0.01554398
22	0xbca97358	-0.020684883
23	0x3d42d4f6	0.047566377
24	0xba42e4e2	-0.0007434619
25	0xbbda0427	-0.006653327
26	0x3bdd1cd1	0.00674782
27	0x3d6686f6	0.056281053
28	0xbc496f2d	-0.012294573
29	0xbb595783	-0.0033163733
30	0x3d12884d	0.035774518
31	0xbc7e7c77	-0.015532604
32	0xbd39cc42	-0.04536081
33	0x3a90c665	0.0011045454
34	0xbc450fb9	-0.012027674
35	0x3cf7e660	0.030261219
36	0x3d02cb61	0.03193224
37	0xbc0ae44e	-0.008477284
38	0x3a59ee6a	0.00083134195
39	0xbd4459c6	-0.047937177
40	0xbb183800	-0.0023226738
41	0x3c56555e	0.013081877
42	0x3cacf798	0.021114156
43	0xbc54c0a5	-0.012985383
44	0x3cd5bae3	0.026090091
45	0xbcd020e3	-0.025406307
46	0x3c90951d	0.017649228
47	0xbc7576a3	-0.0149818985
48	0xbd93bad3	-0.07213368
49	0x3a8ad40e	0.0010591762
50	0x3c8a4240	0.016877294
51	0xbac4ef98	-0.0015025018
52	0xbb7ec822	-0.0038876613
53	0x3bd676ad	0.006544909
54	0xbc075fcb	-0.008262585
55	0xbd0a90e6	-0.033829592
56	0xbcf52b76	-0.02992795
57	0x3d9c42b1	0.07629908
58	0xbd5e77d5	-0.0543135
59	0xbc7424f0	-0.014901385
60	0x3d59f7fd	0.053215016
61	0xbc3dd517	-0.011586449
62	0x3aab3b97	0.0013064024
63	0xbc952c18	-0.018209502

sequential_4_1/dense_12_1/BiasAdd/ReadVariableOp f4 [32]
0	0x3e830130	0.25586843
1	0xbc9d5de0	-0.019209802
2	0x3b9a2450	0.004704036
3	0x3dfe46ec	0.12415871
4	0xbdd8e8e2	-0.10591294
5	0x3d177fc8	0.036987096
6	0xbbd5c17b	-0.006523309
7	0xbd1a3601	-0.03764916
8	0x3ba36a71	0.004987054
9	0x3cd2cbb0	0.025731891
10	0xbe2867a7	-0.1644579
11	0xbd3f62fc	-0.04672526
12	0x3d7b5c02	0.061367042
13	0x3d9f8b2c	0.07790217
14	0x3cd138ce	0.025539782
15	0xbd30bd3f	-0.04314923
16	0x3e68d1a4	0.22736222
17	0xbdf03fa0	-0.117308855
18	0x3db76c7e	0.0895624
19	0xbd434c06	-0.047679923
20	0xbd0ed5f5	-0.034872014
21	0x3e016516	0.12636217
22	0xbd116d23	-0.03550447
23	0xbe1dfbfb	-0.15428154
24	0xba84b3a7	-0.0010124341
25	0x3d4ec5bb	0.05048154
26	0xbcdc66d7	-0.026904507
27	0x3b8a055b	0.004212064
28	0xbd62d10a	-0.055375136
29	0xbd262364	-0.040561095
30	0x3e22b403	0.15888982
31	0x3be29530	0.006914757

sequential_4_1/dense_12_1/MatMul f4 [32, 6]
0	0xbf0c05d3	-0.5469639
1	0xbe83c38c	-0.25735128
2	0xbf3d9c00	-0.7406616
3	0x3f11fb4c	0.57024074
4	0xbe46ef1c	-0.1942715
5	0x3f533d2a	0.82515204
6	0xbf243c04	-0.64154077
7	0xbea12791	-0.314755
8	0xbe21cb0a	-0.1580011
9	0x3c980c85	0.018560657
10	0x3e86c25c	0.2632016
11	0x3eb38b39	0.35067156
12	0xbed26cb5	-0.41098562
13	0x3ee7d88e	0.45282406
14	0xbe5bc88d	-0.21463223
15	0x3d9986a0	0.07496381
16	0x39d9e612	0.0004156088
17	0xbe9a4ba8	-0.30135846
18	0x3ecfc56a	0.40580302
19	0xbe403bd3	-0.18772821
20	0xbe36b138	-0.17841041
21	0xbe299d92	-0.16564015
22	0xbe4c2c4c	-0.19938773
23	0x3d843482	0.064553276
24	0x3e25aee2	0.16179994
25	0x3eb6df56	0.35717267
26	0x3e8a983e	0.27069277
27	0x3ef6ea2c	0.48225534
28	0x3b095898	0.0020957347
29	0xbc9c6a7d	-0.019093746
30	0xbe58a282	-0.21155742
31	0x3ef5ff59	0.48046377
32	0xbecba66b	-0.39775404
33	0xbeaaf57d	-0.33390418
34	0xbe51c004	-0.20483404
35	0xbda168f2	-0.07881345
36	0xbd8b5a75	-0.06804363
37	0xbe921e1e	-0.28538603
38	0x3ccf1a27	0.025281025
39	0xbed6c0fe	-0.41944116
40	0x3e7207a1	0.23635723
41	0xbf158c46	-0.58417165
42	0xbee7af4f	-0.45250937
43	0x3eb477c5	0.35247627
44	0x3dd812e7	0.1055048
45	0xbe1999fd	-0.15000148
46	0x3e2889ae	0.1645877
47	0x3e32d40e	0.17463705
48	0x3dcd9c58	0.10039586
49	0xbf065a58	-0.52481604
50	0x3e864ae0	0.26229
51	0xbeae1ded	-0.34007207
52	0x3d934bdb	0.07192203
53	0xbefaf953	-0.49018344
54	0x3f310964	0.69154954
55	0x3e117402	0.1420441
56	0xbdb5aa73	-0.08870401
57	0x3d983be1	0.07433296
58	0xbe4d3dbb	-0.2004308
59	0xbed12121	-0.40845588
60	0x3e1885c9	0.14894785
61	0x3e15a79a	0.14614716
62	0x3e04c761	0.12966682
63	0x3e0fefed	0.14056368
64	0x3e9c01eb	0.30470213
65	0xbd747862	-0.05968512
66	0x3ef101f5	0.47071806
67	0xbee30dd3	-0.44346485
68	0xbc86ee17	-0.016470952
69	0xbede317e	-0.43397135
70	0x3e92dcd3	0.286841
71	0xbe0c05df	-0.13674115
72	0xbdd5bc87	-0.10436349
73	0xbeae011e	-0.33985227
74	0xbf112e9b	-0.5671174
75	0xbef9b8ae	-0.48773712
76	0x3e8a1d3c	0.2697543
77	0xbe7aad69	-0.24480213
78	0xbdf0cd4f	-0.117579095
79	0xbec57958	-0.3856914
80	0xbd835689	-0.0641299
81	0xbe4f8eaf	-0.20269273
82	0xbd8ce2da	-0.06879206
83	0xbf0f255d	-0.55916387
84	0x3f1dafea	0.6159655
85	0x3e33e06c	0.17566079
86	0x3dd16336	0.10224001
87	0xbd74b8bb	-0.059746485
88	0xbebd9b50	-0.37032557
89	0xbdb1dbd6	-0.086845085
90	0xbf5a694c	-0.8531692
91	0xbefe0632	-0.49614102
92	0xbe65bc2a	-0.2243506
93	0x3ebf4ee6	0.37364882
94	0xbbb56666	-0.0055358885
95	0x3f05285b	0.520147
96	0xbd9c465a	-0.07630606
97	0xbe27d8b8	-0.16391265
98	0xbf153ce2	-0.58296025
99	0x3df464b1	0.11933268
100	0xbea7666b	-0.32695326
101	0x3ee0de72	0.43919712
102	0xbefee5de	-0.4978475
103	0x3d8475fb	0.064678155
104	0xbe4ec133	-0.20190887
105	0x3ecea0c8	0.4035704
106	0x3e8939df	0.26801965
107	0xbd94fe59	-0.072750755
108	0x3d912982	0.07087995
109	0xbe99c59b	-0.30033574
110	0x3e5860a3	0.21130614
111	0xbebd6703	-0.36992654
112	0xbe979c59	-0.2961147
113	0xbde3d87c	-0.111252755
114	0xbe3b224f	-0.18274806
115	0x3ec9759b	0.39347538
116	0x3dddfb83	0.10838988
117	0xbd4ed517	-0.050496187
118	0x3e20f67b	0.15719025
119	0x3cfd3269	0.030907826
120	0xbf02619d	-0.50930196
121	0x3ef92f74	0.48669016
122	0x3e8a5456	0.27017468
123	0xbe0274c6	-0.12739858
124	0x3e3a38ec	0.18185776
125	0x3dd3e631	0.1034664
126	0xbe0dcfc1	-0.13848783
127	0xbf060271	-0.52347475
128	0xbf2505a0	-0.6446171
129	0x3f5906a0	0.84775734
130	0x3dcfa7bf	0.10139417
131	0x3f5f1cec	0.87153506
132	0xbe7536e9	-0.23946728
133	0x3e2e0b2d	0.1699645
134	0xbe95cd4c	-0.29258192
135	0x3e8fedcb	0.2811111
136	0x3e3ff9f4	0.18747693
137	0x3daf6b17	0.08565348
138	0x3d756610	0.059911788
139	0x3e33bedd	0.17553277
140	0x3ede5b78	0.4342916
141	0xbeda9a6e	-0.42695946
142	0x3e5b5c82	0.21422008
143	0x3ed453df	0.4147024
144	0x3edd7282	0.43251425
145	0xbef26a22	-0.47346598
146	0x3c146eb5	0.009059598
147	0xbea9325e	-0.3304624
148	0x3dfaae08	0.12240225
149	0x3eafc77c	0.34331882
150	0xbeda593b	-0.42646202
151	0xbd74e0f1	-0.059784833
152	0xbef8b4a7	-0.48575327
153	0x3e3c4db1	0.18389012
154	0xbd3b0261	-0.045656566
155	0x3f10362a	0.5633265
156	0x3e86cb3e	0.26326936
157	0x3ec8146b	0.39078078
158	0xbe800e44	-0.25010884
159	0xbd45f350	-0.048327744
160	0xbe30c039	-0.17260827
161	0x3eabdd54	0.33567297
162	0xbf20926c	-0.6272342
163	0xbdc24ead	-0.094876625
164	0xbe0b5e39	-0.13610162
165	0x3e9baf66	0.30407256
166	0x3d22041f	0.03955471
167	0xbe5b0f32	-0.21392515
168	0x3f068430	0.5254545
169	0xbe73d47a	-0.23811522
170	0x3ef90ed6	0.4864413
171	0xbeb37ac4	-0.350546
172	0x3e35dcbb	0.17759983
173	0xbeea59a4	-0.45771515
174	0x3ed353ed	0.41274968
175	0xbef15852	-0.47137696
176	0x3edc26d9	0.42998388
177	0x3e64d1c1	0.2234564
178	0x3e001597	0.12508236
179	0xbdcdd177	-0.10049718
180	0xbe7df259	-0.2479948
181	0xbed628df	-0.41828057
182	0xbf3b8e25	-0.7326377
183	0x3e13e66a	0.14443365
184	0xbdad3144	-0.08456662
185	0x3da4e3c4	0.08051255
186	0x3d90f678	0.0707826
187	0x3ee5de18	0.44896007
188	0xbec49d83	-0.38401422
189	0xbeba4e49	-0.36387852
190	0xbe26422b	-0.16236179
191	0xbe77a0b2	-0.24182394
