model_motif.tflite (tflite, 12456 bytes, 6 tensors)

arith.constant f4 [3, 64]
000000 d3 10 0b bf 41 82 cd 3e b8 5e 51 be f5 de d2 3e
       -0.54322547 0.40138438 -0.20446289 0.41185728
000010 43 53 d4 be 76 ac 02 3e 85 95 65 be e2 11 a0 be
       -0.41469774 0.12761101 -0.22420318 -0.31263644
000020 f9 25 94 3e ca 66 b4 be a9 75 93 3c 9c 1d 9b be
       0.2893522 -0.35234672 0.01800044 -0.30296028
000030 46 78 20 3f 4f d9 1a 3f c3 06 25 3f 10 39 c9 be
       0.6268352 0.60487837 0.6446344 -0.39301348
000040 df 52 e5 be f9 84 5d 3e 30 5e 3c 3f 8c f2 cb be
       -0.44789788 0.21632756 0.7358122 -0.39833486
000050 9b 88 f0 3e 0c 13 d5 be 7d cd 22 bf 53 2e c3 3e
       0.46979222 -0.41616094 -0.635948 0.3812128
000060 b9 64 c8 be de 29 b5 bd dc 39 4e be cb 8c cc bd
       -0.39139345 -0.08845876 -0.20139259 -0.09987792
000070 8b 0d 16 3f 15 ed d1 3e a4 74 9c be d0 e6 ff 3d
       0.58614415 0.41001192 -0.3055774 0.12495196
000080 49 07 6d 3e e0 a4 a2 3e ed 48 87 3e a8 8d 7b be
       0.2314731 0.31766415 0.26422825 -0.24565756
000090 67 36 88 be 1e dd a5 be fe 74 b2 be b3 9e 10 bf
       -0.26604006 -0.32395262 -0.34854883 -0.56492156
0000a0 e3 39 86 be b5 1c a3 3d 91 f1 8b be ed df 3b bf
       -0.2621604 0.0796446 -0.27332738 -0.7338856
0000b0 34 fa ce 3d b4 6a 55 be a6 a5 a2 be 3a 57 64 be
       0.10106316 -0.20841485 -0.31767005 -0.222989
0000c0 dd 6a 1d bf 0e ab ea 3e 8c 65 dc be 6a 55 0d 3f
       -0.61491185 0.4583363 -0.43046224 0.55208457
0000d0 8d 13 c4 3d b0 57 24 be 75 86 83 be 5e 20 1d bf
       0.095740415 -0.16049075 -0.2568852 -0.61377513
0000e0 f7 e4 2f bf 45 72 4b 3e 2e 5a 87 3e 59 28 9b 3c
       -0.6870875 0.19867809 0.2643599 0.018940138
0000f0 2a ea 81 be e2 80 2b 3f b4 fb 36 be 26 6a d6 bd
       -0.25373966 0.66993535 -0.17869455 -0.10469465
000100 20 3e 84 3e 9a 37 54 bd da 70 5b 3c dc 93 a4 be
       0.25828648 -0.05181084 0.013393605 -0.32144058
000110 8c 76 b1 3e 35 bd 94 3c c4 55 80 3e 12 b3 2c 3e
       0.34660757 0.018156627 0.25065434 0.16865185
000120 18 3d 2b 3e d3 d6 ef bb 6d e6 80 3e 02 3a b1 3e
       0.16722524 -0.00731931 0.251758 0.3461457
000130 0e 79 c0 be c7 7c 97 be 0c a4 9c bd ba e6 7e 3e
       -0.37592357 -0.29587385 -0.07648477 0.24892703
000140 90 64 95 be bd ed 08 bc 4d 95 ac be ea f3 02 3f
       -0.29178286 -0.0083574625 -0.33707657 0.51153433
000150 68 d5 c9 3e 2d 76 b1 be 3e 6c 3f be c9 aa b4 3e
       0.3942063 -0.34660473 -0.18693635 0.3528655
000160 f2 5b c2 bd 5f a0 fe 3d 3f 79 9d 3e 74 37 5f be
       -0.094901934 0.12432932 0.30756566 -0.21798497
000170 d9 62 b8 be a9 fe 12 bd 10 86 b9 3e ce 51 eb bd
       -0.36012915 -0.035887394 0.36235094 -0.114902124
000180 35 f8 2b be f5 db e0 be 12 ce ac be e4 1c 1d bb
       -0.16793902 -0.43917814 -0.3375097 -0.002397352
000190 d0 64 c6 3e f0 28 89 3e 49 9d 14 be 4f aa 5a bd
       0.3874879 0.26789045 -0.14513125 -0.053385075
0001a0 62 17 13 3e 14 37 c0 3e 94 43 0c 3f d6 58 8d 3b
       0.14364389 0.3754202 0.54790616 0.0043135686
0001b0 71 52 cf be ff 4f cc 3e c6 7a 68 3e 9d d1 5b be
       -0.40492585 0.39904782 0.22703084 -0.2146668
0001c0 bd 0f 31 be f5 27 47 3c 03 8f 93 3d df 4d 03 3d
       -0.1729116 0.012155523 0.07205012 0.032056686
0001d0 d2 44 f4 bd 76 7a 6d 3e d3 88 95 3e ba 1e a4 bd
       -0.11927189 0.23191246 0.2920595 -0.08013673
0001e0 cb 97 3d bd 4a 2c 17 3e a1 fc a9 3d 7e f6 ea bd
       -0.04628734 0.14762989 0.08300138 -0.11472796
0001f0 a4 05 22 3e c8 45 0b bf fc fc ec be f1 e6 03 3e
       0.15822464 -0.5440335 -0.46286762 0.12881066
000200 b2 e7 d4 3e 45 b3 f5 be 72 a2 a5 3e a1 1c d7 bc
       0.4158302 -0.47988334 0.32350498 -0.026258769
000210 a0 0e c2 bd 8b 4b d7 be 0b 25 70 3e f4 c0 95 3e
       -0.09475446 -0.42049822 0.23451631 0.29248774
000220 d7 e4 55 bf 04 c8 96 3e 8f da b1 be 42 de 93 bc
       -0.83552307 0.29449475 -0.3473706 -0.018050317
000230 8b 29 7c 3d d8 5e d7 be c1 6b ff be bb 45 56 3e
       0.061563056 -0.42064548 -0.49886897 0.20925038
000240 6a d3 4c 3e f3 aa 4e be da ee 25 be 9b f8 39 3e
       0.20002523 -0.201824 -0.16204396 0.18161242
000250 d0 20 0b bf d5 d6 6e 3d 5f 60 05 3f 03 4d 40 bf
       -0.5434694 0.05831035 0.52100176 -0.7511751
000260 70 a3 5f be 6c bf b7 be c7 c5 84 bd 77 6d fc 3e
       -0.2183969 -0.3588823 -0.064830355 0.49302265
000270 77 76 a2 be cd 02 d3 be d7 dd ff bd bb 14 90 3e
       -0.31731007 -0.41213074 -0.124934845 0.28140816
000280 91 cd 8c bd 9b 97 45 be d4 e5 ca bd 12 1d 93 be
       -0.06875146 -0.19296114 -0.099071175 -0.28733116
000290 36 fc ae be 23 0f f4 3e 5a b8 97 3e 30 e7 f7 3e
       -0.34176797 0.47667798 0.29632837 0.4841857
0002a0 13 5e 4d 3e 76 7e 9b be 78 04 9d be 81 ea 1a 3f
       0.20055418 -0.3036992 -0.30667472 0.60514075
0002b0 95 96 a4 bd b3 3c 82 bd b6 42 80 be eb 14 05 3f
       -0.08036534 -0.06359234 -0.25050896 0.51985043
0002c0 6d 75 4b 3e 31 8b 30 bd e2 78 b6 3e 64 69 93 be
       0.19869013 -0.043101493 0.356391 -0.28791344
0002d0 9a dc 7f be 54 34 b2 3d 0d 0c 11 bd e5 5d b1 3e
       -0.24986497 0.08701387 -0.035411883 0.34641948
0002e0 c9 5f 99 3e db 7c 07 bf 04 75 62 3e ad 57 35 3e
       0.2995589 -0.5292489 0.2211495 0.17709227
0002f0 b2 d4 8d 3e b0 59 1b bd c3 ff 26 3f 84 5e d3 3e
       0.27701336 -0.03792733 0.6523401 0.41283047

arith.constant1 f4 [64, 32]
000000 ae 58 3c be d1 a5 88 3e 69 10 a4 bd dd ab 7f 3d
       -0.18393204 0.26689008 -0.080109425 0.06241976
000010 23 db 21 3e 60 bb 76 3d a5 4e 21 bf 34 08 f5 3d
       0.1580625 0.06023729 -0.6301063 0.11964455
000020 c3 19 3a be 32 9b 92 3e f7 84 74 be c4 97 56 be
       -0.1817389 0.2863403 -0.23878847 -0.20956331
000030 03 64 e7 bd 26 a2 9d 3e a7 97 8c be d7 f2 b1 bc
       -0.112983726 0.30787772 -0.27459452 -0.02172224
000040 fa fd 03 3e 99 b2 04 bf 2d 78 7f be 26 91 c1 bd
       0.12889853 -0.5183502 -0.24948187 -0.09451513
000050 fe df 9b 3d 7f b2 b1 3e 67 21 29 be 87 33 80 bd
       0.076110825 0.34706494 -0.16516648 -0.06259828
000060 10 08 87 be 8c b1 84 3e 22 1d 9f 3e 8a cc ab be
       -0.2637334 0.25916708 0.31076914 -0.33554488
000070 ea 13 1e 3f 7a a9 c0 bd 2c 47 53 be d2 dd 4e be
       0.61749136 -0.09407325 -0.20632619 -0.20201805
000080 d4 10 7d bd 12 6f c6 3e f3 bc 67 3e ff 26 93 3d
       -0.061783627 0.38756615 0.22630672 0.07185172
000090 a6 88 f3 3d 32 b0 08 3e cc 7a 0e 3f 01 a7 6b 3e
       0.11891298 0.13348463 0.55656123 0.23012926
0000a0 14 5a 91 be e1 96 7e be 21 35 0f 3e c2 8d fe bd
       -0.28389037 -0.24862243 0.13985111 -0.12429382
0000b0 b2 c2 25 3e a8 93 a7 3d 96 f4 09 be b3 52 b2 3e
       0.16187552 0.0818246 -0.13472208 0.3482872
0000c0 ee 08 d9 be 47 b3 e2 3e 08 7a 96 3d c1 20 90 3e
       -0.42389625 0.44277403 0.07347494 0.2814999
0000d0 f8 ba 22 be 7c 83 71 be c8 70 ac 3d 79 19 db be
       -0.15891635 -0.23585314 0.08419949 -0.42792872
0000e0 ed db ae be 90 4f 3f 3d b7 65 c0 be 88 78 0b 3d
       -0.34152165 0.046706736 -0.37577602 0.034050494
0000f0 ac 89 fc be 82 2a 1e 3e 20 c8 17 3d 46 87 70 bd
       -0.49323785 0.15445903 0.03705609 -0.058722757
000100 01 73 c8 bd 71 eb 03 3e 57 98 19 be b3 83 a5 bd
       -0.0978756 0.12882783 -0.1499952 -0.0808176
000110 71 29 ea bd 13 c5 1d be 8f aa 1e bf 41 a7 ce be
       -0.114336856 -0.15407209 -0.61979 -0.4036198
000120 80 9c 0a be b4 39 ad 3e 1f 94 7c 3d da aa 38 be
       -0.13536263 0.33833086 0.061664697 -0.18033925
000130 1f e2 1f be 9b 21 78 bd 38 45 91 bd 1d 43 d9 bd
       -0.15613602 -0.060578924 -0.070932806 -0.10608504
000140 f6 59 e3 bd 6a ac 4e be 73 63 15 be d7 09 b6 3d
       -0.11101143 -0.20182958 -0.14588718 0.088885956
000150 17 09 f0 bc 93 08 4c 3e df bd 46 3e e3 e4 57 3e
       -0.02930121 0.19925146 0.19408368 0.21083407
000160 fb 60 24 3e c5 32 37 3e 81 14 7a bd 7a 31 ec bd
       0.1605262 0.17890461 -0.06105471 -0.115328744
000170 8a d9 ff 3e fe 86 de be 20 5b 81 be 02 07 56 be
       0.49970657 -0.43462366 -0.25264835 -0.20901111
000180 26 dc 4d 3e 1c 3d ef be 5d 73 28 3e b1 34 fa be
       0.20103511 -0.4672631 0.16450258 -0.48868325
000190 f7 b2 b9 3e fb 64 0b be 39 e8 bf 3e c3 1e 86 be
       0.36269352 -0.1361274 0.3748186 -0.26195344
0001a0 c6 c2 09 3f 8d 8b a3 be 6a 0e f7 bd c9 d1 07 3e
       0.53812826 -0.31942406 -0.12063296 0.1326362
0001b0 d2 56 1d 3d 39 cf 2d be b3 0b c6 3d b3 c9 b4 be
       0.038412876 -0.1697358 0.096702 -0.35310134
0001c0 a9 51 9c be 1e ed a7 3e 86 82 25 be 4e 45 3e 3e
       -0.30531052 0.32798094 -0.16163072 0.18581125
0001d0 f6 29 b8 3d 19 21 1d bd f8 42 1c 3e a4 15 c9 3c
       0.089923784 -0.038361643 0.15259922 0.024546452
0001e0 5b d5 16 3f 97 85 e2 bd 92 64 16 bf 3f 96 b7 3e
       0.58919305 -0.110606365 -0.5874721 0.35856816
0001f0 84 3d eb be 26 19 d1 3e 7d 20 58 bd 8d 17 a5 3e
       -0.4594537 0.408395 -0.05276536 0.3224453
000200 54 b4 eb 3d 03 0d a6 3e a4 8a 72 3e 91 d4 82 3e
       0.11509004 0.32431802 0.236857 0.255528
000210 6e 5b f9 bc 52 dd 81 3c 33 cb 8e be 8c f7 ea 3e
       -0.030439105 0.015852604 -0.27889404 0.45891988
000220 33 60 c5 be 02 6d 76 3e c8 0d a4 bc 2b b0 72 3d
       -0.38549957 0.2406502 -0.020026103 0.059250038
000230 48 43 0c 3e 5c 14 44 3e e1 6c 1c be 8e 6e cd 3d
       0.13697541 0.19148391 -0.15275909 0.10030852
000240 27 fd 2b 3e 97 9d f2 be 03 8d 7d 3e bb ac 7a be
       0.16795789 -0.47385857 0.24760823 -0.24479954
000250 4c 3e 6d be f6 75 5e 3e a0 ef 8c be 25 48 17 be
       -0.23168296 0.21724686 -0.2752657 -0.14773615
000260 ec e4 95 be 83 f1 86 be 77 e2 b7 3e 9d 22 17 bf
       -0.29276216 -0.26356134 0.35914966 -0.5903719
000270 25 43 5e 3e d7 d3 86 be 8a 81 d9 be 2c d2 12 be
       0.21705301 -0.26333496 -0.42481643 -0.14337987
000280 6b 59 99 3d 90 00 09 be 99 03 2b 3c 23 98 d3 3c
       0.07487758 -0.13379121 0.0104378695 0.02582938
000290 03 bf 2f 3e 0c e2 fe 3d ec 5c 0d 3f 36 cc d1 3e
       0.17162709 0.12445459 0.5521991 0.40976113
0002a0 6e 7d 9a 3d e5 42 bc bd ed 91 1b 3e 32 63 17 bd
       0.07543455 -0.091924466 0.15192385 -0.036959834
0002b0 55 76 b3 3d 5d d1 64 be cd 18 9a bd 02 e5 43 3e
       0.087628044 -0.22345491 -0.075242616 0.19130328
0002c0 d2 18 b5 bd a4 b4 51 3e 1a b2 80 3d 91 fa 32 be
       -0.08842625 0.20479065 0.0628397 -0.17478396
0002d0 2b 9f b3 bd 89 a3 b8 be 10 17 4d be c6 87 53 3e
       -0.08770593 -0.36062267 -0.20028329 0.20657262
0002e0 af 72 4e be ec 24 82 3d 44 cd b7 be b7 37 cd 3d
       -0.20160936 0.063546985 -0.35898793 0.100203924
0002f0 eb 94 df be 2e 7c 2d 3e 1a 8e 8d bd c5 fa 34 3e
       -0.43668303 0.16941902 -0.06911869 0.17673786
000300 cc c0 0e be 65 6b 3c 3e 1a b8 7a be 6a d5 6b 3e
       -0.13940734 0.18400343 -0.24484292 0.2303063
000310 3e ef 0c 3e ee 37 04 be 1e 91 da bc 8d 0e 5d be
       0.13763139 -0.1291196 -0.026680525 -0.21587582
000320 b3 7f b3 be d1 67 9d 3d 41 13 1b bd 3a ce 2c be
       -0.35058364 0.07685817 -0.03786016 -0.16875544
000330 0d 0a 16 3e 2e 0a e0 3c 64 0d fd 3c b8 61 89 3c
       0.14652272 0.027348604 0.030890174 0.016770229
000340 87 69 61 3d 3b 08 49 be c0 0d 2d be 2b 29 53 3d
       0.05503228 -0.19632046 -0.16899776 0.051552933
000350 47 f2 a9 bd 84 ad 97 3e 0f b3 65 3e fd b9 a1 3e
       -0.08298164 0.2962457 0.22431587 0.3158721
000360 ca c6 76 be 91 fa ab 3d 6b 65 bd 3e 27 d2 c6 be
       -0.2409927 0.08397401 0.36991438 -0.3883221
000370 ec 6d 6d 3e 06 78 0c 3e fe cb 84 be fb 3d ad be
       0.23186463 0.1371766 -0.25936884 -0.3383635
000380 13 3c 88 3e db 5a 83 3e 4d 69 52 bd 66 c6 27 be
       0.26608333 0.25655255 -0.051369954 -0.16384277
000390 9d 1d 8d 3d 40 b9 0e 3e 2b 0d 03 bf 57 d5 20 be
       0.06890414 0.13937855 -0.5119197 -0.15706383
0003a0 0d 1a 58 bd e8 43 2d 3e 17 bb 7c 3d 55 b7 04 bc
       -0.05275922 0.16920435 0.06170186 -0.00810035
0003b0 80 d0 59 3d 6a f7 57 3e 85 51 e3 bd e2 0f 0c 3e
       0.053177357 0.21090475 -0.11099533 0.13677934
0003c0 fc 6a 33 3d e6 6b 06 bf 4e 0f 77 bd 2e 0d a7 bd
       0.0438032 -0.5250839 -0.06031733 -0.08156811
0003d0 94 67 d8 bd be 38 05 3f 80 66 ca bb 5b 47 e6 3c
       -0.10566631 0.52039707 -0.0061767697 0.028110197
0003e0 31 f6 17 3c d0 32 ae 3e bc 95 dc 3e fd cc 80 be
       0.009275005 0.34023142 0.43082988 -0.25156394
0003f0 06 a6 17 3f 30 8e 74 be 99 04 79 be ff 7c a7 be
       0.59237707 -0.23882365 -0.2431816 -0.32712552

arith.constant2 f4 [3]
000000 bc 17 3c 3c 1f fd 77 bd 71 f0 1b 3d
       0.011480268 -0.06054413 0.0380711

arith.constant3 f4 [64]
000000 77 32 c6 bc 8d 12 05 3c 07 6b e3 3c 20 20 00 3e
       -0.024193985 0.008122099 0.027760996 0.12512255
000010 a5 41 c2 bd c9 72 21 bd 02 27 f5 bc 25 83 e9 bc
       -0.09485177 -0.03941611 -0.029925827 -0.028504917
000020 d7 19 71 bd b8 27 65 bd de 90 3d bd 08 ea 99 bd
       -0.058862533 -0.055946082 -0.046280734 -0.07515341
000030 ac 3d 9f 3d 4c 28 90 3c 1e 66 2c 3b b3 40 e2 bd
       0.07775435 0.01759734 0.0026305984 -0.11047497
000040 7a b3 b4 3c 0b a8 31 39 87 2d 5d 3d 35 74 b4 bd
       0.022058237 0.00016942636 0.053998496 -0.08811227
000050 a3 c5 45 bd e7 59 16 3d 2f f5 0d 3d ec 84 63 bd
       -0.048284184 0.03670683 0.034657653 -0.055546686
000060 69 b5 19 bd 42 ab 96 bd 4e fb ac bd 78 0f 22 3d
       -0.03752652 -0.073568836 -0.0844637 0.039565533
000070 5d 3a 02 3d f8 68 20 bc c8 e9 9b bd 8c 0b 4b 3d
       0.03179394 -0.0097906515 -0.076129496 0.04957156
000080 ad cb 8f 3c 64 c6 ab 3d 6d ee ac 3d 56 f6 9b bd
       0.017553175 0.083874494 0.084439136 -0.07615344
000090 e5 0a b4 bd d1 74 42 bc f8 e9 f8 bb ba 46 c0 3c
       -0.087911405 -0.0118686715 -0.0075962506 0.023471225
0000a0 5f 6a 74 bd 7e dc 8e bd 7a 47 64 bd b7 d0 d5 bd
       -0.059671756 -0.06975649 -0.055732228 -0.104402
0000b0 bc d7 fe 3b 4e a7 a8 bd f5 24 bd bd 80 3e 1d 3d
       0.0077771824 -0.08235036 -0.092355646 0.038389683
0000c0 ca 8f e5 bc 49 28 8a 3d 4a ef 33 3a a4 ab ad bc
       -0.028022666 0.06745965 0.0006863965 -0.021200009
0000d0 a6 12 f6 3c 94 97 ff bd 00 fb af bd d8 9f 42 3d
       0.03003819 -0.12480083 -0.08592796 0.04751572
0000e0 77 5a 00 be 5c 1f 1e bd f5 e9 63 3d 1f 19 59 3c
       -0.1253451 -0.038604125 0.05564304 0.013250618
0000f0 fe 73 01 bc 4e a1 55 3d 94 32 7d 3d e1 9c 9d 3c
       -0.00790119 0.052155785 0.061815813 0.019239845

sequential_9_1/dense_27_1/BiasAdd/ReadVariableOp f4 [32]
000000 4b 26 47 bd f1 96 96 bd c8 6a 55 3d 19 a8 dc bc
       -0.048620503 -0.073530085 0.052103788 -0.026935624
000010 47 5d c5 3c 19 72 f7 bc ff 7f fe bb 49 0c 80 bc
       0.02409233 -0.030205773 -0.007766723 -0.015630858
000020 e8 17 a6 3d 5d 39 4a 3c 04 60 7e bd 1b 5d 1d 3d
       0.081100285 0.012342778 -0.062103286 0.03841887
000030 e4 d1 a8 bd f4 09 0e bc d3 5e 8d 3d c7 63 7d bc
       -0.082431585 -0.008669365 0.06902852 -0.015465683
000040 56 bc dd bd 92 cf c7 3c 19 6d a0 3c a5 2b 89 bd
       -0.10826938 0.02439097 0.019583272 -0.06697778
000050 19 24 c6 3d 5a 8d e8 bd c9 e6 7f bc 21 6b d2 3c
       0.09674854 -0.11355086 -0.015618988 0.025685849
000060 e9 39 a0 3d 12 85 9d bd ab 40 84 bb 7e e4 41 3d
       0.078235455 -0.07691397 -0.0040360293 0.047337048
000070 77 8f cb 3b 77 b2 8f bd 93 1c 04 3e 73 c0 86 3d
       0.0062121707 -0.07016461 0.12901525 0.065796755

sequential_9_1/dense_27_1/MatMul f4 [32, 6]
000000 f5 59 29 3e 11 45 a3 3d 04 9f eb 3e 4b 96 02 be
       0.16538222 0.07972158 0.46019757 -0.12752645
000010 34 a4 9f 3e 98 56 d4 be cb 55 9f 3e dd a1 b0 3e
       0.31179965 -0.41472316 0.31120142 0.34498492
000020 e0 17 15 3f 71 7d d8 be be a7 42 be 64 69 08 bf
       0.58239555 -0.42283204 -0.19009301 -0.53285813
000030 4f cc 4a 3e 83 04 03 bf f6 d6 2a 3d d5 96 58 be
       0.198045 -0.5117876 0.04170891 -0.21151288
000040 6e 35 af be 93 6a e4 3d d6 34 f9 3d d7 10 64 3e
       -0.3422045 0.1115314 0.12168281 0.22272049
000050 a4 97 e0 3e d8 a8 0f bf 42 e3 30 be 9c 69 08 3e
       0.43865693 -0.5611701 -0.17274192 0.13321537
000060 21 cf cd be df 8b 52 be 4b 31 1f bd f5 2a cb 3e
       -0.4019709 -0.20561169 -0.03886537 0.3968121
000070 14 a5 a2 3e df d2 46 3f f8 4f 33 3f 87 2c b7 3e
       0.3176657 0.77665514 0.700439 0.3577616
000080 35 9a 60 bd 0e 6c 59 3d f0 32 94 be 8e 7c 1a 3e
       -0.054834563 0.053081565 -0.28945112 0.15086576
000090 68 29 84 3e 17 08 c2 be 65 11 7f 3e ef 16 f9 be
       0.2581284 -0.37896797 0.24908979 -0.4865031
0000a0 49 96 11 3e 09 ca d0 3e ff 23 c1 3d 80 ca ec bc
       0.14217485 0.4077914 0.09430694 -0.028905153
0000b0 98 10 e1 3e 0e ba 82 be 20 8c c7 bd cd 60 5c 3e
       0.43957973 -0.25532573 -0.097435236 0.21521302
0000c0 4d 99 b3 be 74 e4 86 bd f6 79 ea be 90 0f 1a be
       -0.35077897 -0.06586543 -0.45796174 -0.15044999
0000d0 87 3a bc 3d 70 01 6c 3e cf 9a 01 bf f3 c5 eb 3e
       0.09190851 0.23047423 -0.50626844 0.4604946
0000e0 07 97 4b 3e 03 2f 59 3d 83 88 a8 bd 40 53 6e 3d
       0.19881831 0.05302335 -0.082291625 0.058184862
0000f0 3b 64 90 3c 51 9a 80 bd 4a ab ea 3e 38 ea 0c bf
       0.017625919 -0.062794335 0.45833808 -0.5504489
000100 f0 16 a6 3e 12 6d 41 3e 15 76 fa be 5f 98 9d be
       0.32439375 0.18889263 -0.48918214 -0.30780312
000110 57 aa 43 bd 69 b3 1c 3f 65 e1 a6 3d 58 fc 95 3e
       -0.04776987 0.6121126 0.08148459 0.29294086
000120 83 8d e4 3e 45 69 d0 3d 1b e9 10 3e eb c2 14 bf
       0.44639215 0.101763286 0.14151423 -0.5810992
000130 14 d2 35 3e e0 e4 93 3d ad 89 07 bc 17 df f7 3e
       0.1775592 0.07221389 -0.008272571 0.48412392
000140 3e 61 4f be 5e 80 10 3f 33 e0 2f be d3 6f aa 3e
       -0.20251939 0.5644587 -0.17175369 0.3328844
000150 ef 5b 74 be 8f 40 d4 be 54 96 62 be 55 6d a7 be
       -0.23863195 -0.41455504 -0.22127658 -0.327006
000160 2e 94 b5 3e 6c 19 50 3f 68 3e 07 3f cb c7 24 3e
       0.35464615 0.8128879 0.528296 0.1609184
000170 27 e6 8c 3e 29 5b 80 be 04 70 5b be e0 c1 29 be
       0.27519342 -0.2506955 -0.2142945 -0.16577864
000180 c5 d1 06 bf 96 e0 0d be 56 cd 17 3f cb e0 40 be
       -0.5266383 -0.13855204 0.5929769 -0.18835752
000190 8c 81 44 3e ab 29 0c bf d9 c4 e6 3e 24 d5 05 bf
       0.19190043 -0.5475108 0.45072058 -0.5227835
0001a0 49 28 3f be 7e fe 14 3e ef 79 b6 bb 20 f2 37 3f
       -0.18667711 0.14550206 -0.005568735 0.7185383
0001b0 a1 0a f5 3e 83 a7 0d be 34 90 8e bd da c4 f6 bd
       0.47859672 -0.13833432 -0.06961098 -0.12049265
0001c0 00 90 c1 be 28 a8 1f 3f 82 1c 9b 3e 24 ec d1 bc
       -0.37805176 0.6236596 0.30295187 -0.025625296
0001d0 76 08 a8 3e d2 5e c8 be a3 88 62 3e 71 d4 02 3f
       0.32818955 -0.39134842 0.22122435 0.5110541
0001e0 b5 fb 8c be 18 e8 bb 3d d9 55 9c bd d4 d8 6e be
       -0.27535787 0.09175128 -0.07633562 -0.23324901
0001f0 29 74 a1 bd 46 0b 43 3e db 53 81 be 03 7f 9b 3e
       -0.07883484 0.19047269 -0.2525929 0.3037034
000200 6c 5c 33 be 01 85 01 3e 2c 2f 4c 3e cb 5d 9f be
       -0.17515725 0.12648393 0.1993987 -0.31126246
000210 37 6c 79 3d e0 a2 2a be ff 76 40 3e 7a 9c 84 be
       0.060894217 -0.16663694 0.18795393 -0.25900632
000220 12 c8 9f 3e e8 05 17 3f fd b5 3d bf e6 31 d8 be
       0.3120733 0.5899339 -0.7410582 -0.4222557
000230 b3 ce 9b be 02 0f 47 bb 97 6c 8c 3e d8 b6 6a be
       -0.30431136 -0.0030373936 0.27426597 -0.22921312
000240 ed 5d 7a be ab 86 6d be fc 34 25 bf ae 6e e6 3e
       -0.24449892 -0.23195903 -0.6453397 0.45006317
000250 74 a7 dc 3d 86 4e 15 3f 81 53 fa be 23 3a 52 3e
       0.10774127 0.5832294 -0.48891833 0.2052999
000260 cd 26 77 bd 87 fc c8 bc d1 35 9e 3e b4 c4 8e be
       -0.060339738 -0.024534477 0.30900434 -0.27884448
000270 73 7d fd be 7e a7 f2 3e 3f 1d 47 3e 9e 83 b5 bc
       -0.49509773 0.4739341 0.1944475 -0.022157487
000280 ea cc 3e be 68 ce 9a be 76 c8 33 3e 13 87 89 be
       -0.18632856 -0.302356 0.17556939 -0.26860866
000290 6d 1e 86 be eb 67 17 be e8 70 25 3e d5 05 4c 3f
       -0.26195088 -0.14785735 0.16156352 0.796964
0002a0 ab c1 93 be 95 80 f4 3d 81 30 70 3e 36 85 28 3f
       -0.28858694 0.119385876 0.23456003 0.65828264
0002b0 9a 26 db bd 81 b5 15 bf 73 67 fc 3e 79 d0 ad be
       -0.10700722 -0.5848008 0.49297675 -0.33948115
0002c0 a1 1f 97 3e c8 c6 ee be ac a6 77 3e c8 06 e2 3e
       0.29516318 -0.46636033 0.24184674 0.441458
0002d0 8c 4e 77 be 61 c5 8e be 02 a8 e3 bb fe 29 b4 be
       -0.24151057 -0.27884963 -0.0069475183 -0.35188287
0002e0 22 3d 94 3c 88 07 28 3f 35 90 9b 3e 1e 13 08 bf
       0.018095557 0.6563649 0.3038346 -0.5315417
0002f0 ac bd 54 3e e5 72 95 be e2 0e 6f 3e f0 b4 f2 3d
       0.20775479 -0.2918922 0.23345521 0.11850917
